…
AOh14GhVHZSSFgcflbXyuTjHb3XRMHAe4x_B6Mr4f6XvzA=s64","userId":"07972583068794560208"}},"outputId":"85785c1a-8ccb-442a-8fee-818c3f855896"},"outputs":[{"output_type":"stream","name":"stdout","text":["Model: \"model_5\"\n","_________________________________________________________________\n"," Layer (type)                Output Shape              Param #   \n","=================================================================\n"," input_16 (InputLayer)       [(None, 224, 224, 3)]     0         \n","                                                                 \n"," efficientnetb0 (Functional)  (None, 7, 7, 1280)       4049571   \n","                                                                 \n"," flatten_11 (Flatten)        (None, 62720)             0         \n","                                                                 \n"," batch_normalization_43 (Bat  (None, 62720)            250880    \n"," chNormalization)                                                \n","                                                                 \n"," dense_48 (Dense)            (None, 64)                4014144   \n","                                                                 \n"," batch_normalization_44 (Bat  (None, 64)               256       \n"," chNormalization)                                                \n","                                                                 \n"," dense_49 (Dense)            (None, 32)                2080      \n","                                                                 \n"," batch_normalization_45 (Bat  (None, 32)               128       \n"," chNormalization)                                                \n","                                                                 \n"," dense_50 (Dense)            (None, 10)                330       \n","                                                                 \n"," dense_51 (Dense)            (None, 64)                704       \n","                                                                 \n"," batch_normalization_46 (Bat  (None, 64)               256       \n"," chNormalization)                                                \n","                                                                 \n"," dense_52 (Dense)            (None, 32)                2080      \n","                                                                 \n"," batch_normalization_47 (Bat  (None, 32)               128       \n"," chNormalization)                                                \n","                                                                 \n"," dense_53 (Dense)            (None, 25)                825       \n","                                                                 \n","=================================================================\n","Total params: 8,321,382\n","Trainable params: 4,145,987\n","Non-trainable params: 4,175,395\n","_________________________________________________________________\n"]}],"source":["#학습 방식은 동일 \n","label_model.compile(optimizer=adam, loss=\"sparse_cat
…
