…
================================================\n"," input_2 (InputLayer)           [(None, 294, 9)]     0           []                               \n","                                                                                                  \n"," input_3 (InputLayer)           [(None, 224, 224, 3  0           []                               \n","                                )]                                                                \n","                                                                                                  \n"," bidirectional (Bidirectional)  (None, 294, 256)     141312      ['input_2[0][0]']                \n","                                                                                                  \n"," sequential_1 (Sequential)      (None, 224, 224, 3)  0           ['input_3[0][0]']                \n","                                                                                                  \n"," bidirectional_1 (Bidirectional  (None, 256)         394240      ['bidirectional[0][0]']          \n"," )                                                                                                \n","                                                                                                  \n"," efficientnetb0 (Functional)    (None, 7, 7, 1280)   4049571     ['sequential_1[0][0]']           \n","                                                                                                  \n"," flatten (Flatten)              (None, 256)          0           ['bidirectional_1[0][0]']        \n","                                                                                                  \n"," flatten_1 (Flatten)            (None, 62720)        0           ['efficientnetb0[0][0]']         \n","                                                                                                  \n"," batch_normalization (BatchNorm  (None, 256)         1024        ['flatten[0][0]']                \n"," alization)                                                                                       \n","                                                                                                  \n"," batch_normalization_3 (BatchNo  (None, 62720)       250880      ['flatten_1[0][0]']              \n"," rmalization)                                                                                     \n","                                                                                                  \n"," dense (Dense)                  (None, 64)           16448       ['batch_normalization[0][0]']    \n","                                                                                                  \n"," dense_3 (Dense)                (None, 64)           4014144     ['batch_normalization_3[0][0]']  \n","                                                                                                  \n"," batch_normalization_1 (BatchNo  (None, 64)          256         ['dense[0][0]']                  \n"," rmalization)                                                                                     \n","                                                                                                  \n"," batch_normalization_4 (BatchNo  (None, 64)          256         ['dense_3[0][0]']                \n"," rmalization)                                                                                     \n","                                                                                                  \n"," dense_1 (Dense)                (None, 32)           2080        ['batch_normalization_1[0][0]']  \n","                                                                                                  \n"," dense_4 (Dense)                (None, 32)           2080        ['batch_normalization_4[0][0]']  \n","                                                                                                  \n"," batch_normalization_2 (BatchNo  (None, 32)          128         ['dense_1[0][0]']                \n"," rmalization)                                                                                     \n","                                                                                                  \n"," batch_normalization_5 (BatchNo  (None, 32)          128         ['dense_4[0][0]']                \n"," rmalization)                                                                                     \n","                                                                                                  \n"," dense_2 (Dense)                (None, 10)           330         ['batch_normalization_2[0][0]']  \n","                                                                                                  \n"," dense_5 (Dense)                (None, 10)           330         ['batch_normalization_5[0][0]']  \n","                                                                                                  \n"," concatenate (Concatenate)      (None, 20)           0           ['dense_2[0][0]',                \n","                                                                  'dense_5[0][0]']                \n","                                                                                                  \n"," dense_6 (Dense)                (None, 64)           1344        ['concatenate[0][0]']            \n","                                                                                                  \n"," batch_normalization_6 (BatchNo  (None, 64)          256         ['dense_6[0][0]']                \n"," rmalization)                                                                                     \n","                                                                                                  \n"," dense_7 (Dense)                (None, 32)           2080        ['batch_normalization_6[0][0]']  \n","                                                                                                  \n"," batch_normalization_7 (BatchNo  (None, 32)          128         ['dense_7[0][0]']                \n"," rmalization)                                                                                     \n","                                                                                                  \n"," dense_8 (Dense)                (None, 25)           825         ['batch_normalization_7[0][0]']  \n","                                                                                                  \n","==================================================================================================\n","Total params: 8,877,840\n","Trainable params: 4,701,741\n","Non-trainable params: 4,176,099\n","___________________________________________________
…
