…
AOh14GhVHZSSFgcflbXyuTjHb3XRMHAe4x_B6Mr4f6XvzA=s64","userId":"07972583068794560208"}},"outputId":"838dc503-ffbc-4ad9-c789-f48c75616c80"},"outputs":[{"output_type":"stream","name":"stdout","text":["Model: \"model_1\"\n","_________________________________________________________________\n"," Layer (type)                Output Shape              Param #   \n","=================================================================\n"," input_4 (InputLayer)        [(None, 224, 224, 3)]     0         \n","                                                                 \n"," efficientnetb0 (Functional)  (None, 7, 7, 1280)       4049571   \n","                                                                 \n"," flatten_1 (Flatten)         (None, 62720)             0         \n","                                                                 \n"," batch_normalization_5 (Batc  (None, 62720)            250880    \n"," hNormalization)                                                 \n","                                                                 \n"," dense_6 (Dense)             (None, 64)                4014144   \n","                                                                 \n"," batch_normalization_6 (Batc  (None, 64)               256       \n"," hNormalization)                                                 \n","                                                                 \n"," dense_7 (Dense)             (None, 32)                2080      \n","                                                                 \n"," batch_normalization_7 (Batc  (None, 32)               128       \n"," hNormalization)                                                 \n","                                                                 \n"," dense_8 (Dense)             (None, 10)                330       \n","                                                                 \n"," dense_9 (Dense)             (None, 64)                704       \n","                                                                 \n"," batch_normalization_8 (Batc  (None, 64)               256       \n"," hNormalization)                                                 \n","                                                                 \n"," dense_10 (Dense)            (None, 32)                2080      \n","                                                                 \n"," batch_normalization_9 (Batc  (None, 32)               128       \n"," hNormalization)                                                 \n","                                                                 \n"," dense_11 (Dense)            (None, 25)                825       \n","                                                                 \n","=================================================================\n","Total params: 8,321,382\n","Trainable params: 4,145,987\n","Non-trainable params: 4,175,395\n","_________________________________________________________________\n"]}],"source":["#학습 방식은 동일 \n","label_model.compile(optimizer=adam, loss=\"sparse_cat
…
